iPostureGuard/app/src/main/assets/posture_rf_model.tflite (tflite, 3544 bytes, 3 tensors)

arith.constant f4 [1, 64]
00000000: 035b 253e ea05 80be da44 463e 170f 08be
00000010: e513 5b3e 1902 213d 4336 debd be9d 0ebe
00000020: c12e b13e f64f 46be 6e49 3d3e 2b8c a03d
00000030: 027c cfbd e6e6 183e 3740 533e 4290 913e
00000040: 41e4 b13d 80bc 5f3c 3060 e63c 2c6d 5a3e
00000050: fc96 223e affa 60bd aca3 f5bd 4e20 24be
00000060: 6fc5 14bc 98cc d83d 68ed 933d d7bd 0a3e
00000070: a788 373e e1bc 833e 9880 223e c153 a43e
00000080: 04dc 61bd bc38 843e e520 12be 3a7d 8ebe
00000090: d9a2 203e 992b dc3d a143 883e f94a 83be
000000a0: 29fb 003e 01c1 67be a532 75be 88a0 cb3d
000000b0: 9541 8e3d 51ea 72be db69 fdbd 3f99 3dbe
000000c0: 9fd6 0dbe 337f c6bd e45a e53d 7726 09be
000000d0: 0de9 9e3d 1246 8e3e 9442 82be 95f3 61bd
000000e0: 44c8 33bd 9e89 68be 6068 af3e 0e6c d93d
000000f0: 8c47 843d 8486 bb3d c0c8 62bc 6da4 52bc
0.16148 -0.25004512 0.19362202 -0.13287006 0.21394308 0.03930864 -0.10850193 -0.13927361
0.34605983 -0.1936644 0.18485042 0.07839235 -0.101310745 0.14931831 0.20629965 0.28430372
0.08686114 0.013655782 0.028122038 0.21330708 0.15877908 -0.05492657 -0.119941086 -0.16027948
-0.009080275 0.10585898 0.07223016 0.1354898 0.17923222 0.2573004 0.15869367 0.3209515
-0.055141464 0.25824535 -0.14270361 -0.27829915 0.15687121 0.10750503 0.26614097 -0.25643137
0.1259581 -0.22632219 -0.239451 0.09942728 0.069461025 -0.23722197 -0.12373706 -0.1851549
-0.13851403 -0.0969223 0.11198977 -0.1339358 0.07759295 0.27787834 -0.2544142 -0.05516394
-0.04389216 -0.22708747 0.3425932 0.10616313 0.06458959 0.09156516 -0.013841808 -0.012856585

functional_1/dense_1/BiasAdd/ReadVariableOp f4 [64]
00000000: 35c3 293d 35bc 1cbd dbcb 2d3d b5fa 1ebd
00000010: 471b 2a3d d5d5 033d 4306 c9bc 8a42 1abd
00000020: f941 283d c8c3 dcbc 0000 0000 0541 313d
00000030: 752b 01bd 0000 0000 a208 293d fd32 263d
00000040: 88bf 2e3d 0000 0000 fa5a b03c 0000 0000
00000050: dff9 283d 06b7 17bd 0000 0000 6a35 e1bc
00000060: 9aef 00bd bc09 2c3d 0000 0000 faf2 2d3d
00000070: 4daf 863c 7839 323c 0000 0000 bcd0 253d
00000080: 0000 0000 a1e4 2c3d 0000 0000 0000 0000
00000090: d247 2d3d 8375 2b3d 551c 2b3d 300c fabc
000000a0: 151f 1f3d eb6b 49bc 0d99 14bd 31cb 2c3d
000000b0: 3490 313d 66ad f9bc 057f 01bd 59c7 0cbc
000000c0: bcfb e1bc ef0a 3fbc e84b 233d 0000 0000
000000d0: 5499 2f3d 9a8f 193d 3d1c 0dbd a9cc 02bd
000000e0: cd03 16bd f7cc 17bd 4c9b 2b3d 7599 2d3d
000000f0: a603 333d 9878 2d3d 6379 d7bc fff1 06bd
0.04144593 -0.038265426 0.04243074 -0.03881331 0.04152992 0.032186348 -0.024539119 -0.037661113
0.04107854 -0.026948825 0.0 0.043274898 -0.031535584 0.0 0.041268 0.04057597
0.042663127 0.0 0.021527756 0.0 0.04125392 -0.03703978 0.0 -0.02749129
-0.0314785 0.04200147 0.0 0.04246805 0.016441012 0.010877959 0.0 0.040482268
0.0 0.042210225 0.0 0.0 0.04230482 0.041860115 0.041775066 -0.03052339
0.038848 -0.012293796 -0.036278773 0.042185966 0.043350413 -0.03047819 -0.031615276 -0.00859245
-0.027585857 -0.011660322 0.03986731 0.0 0.042870834 0.037490465 -0.03445076 -0.03193346
-0.03662472 -0.037060704 0.04189615 0.042382676 0.04370465 0.042351335 -0.026302999 -0.03294563

functional_1/dense_1/MatMul f4 [64, 6]
00000000: bd5e 6e3e be42 7f3e d322 28be bfeb 5f3d
00000010: 1265 a73e b25d d7bd aad7 363b 6ad9 473e
00000020: 8704 6ebd acf6 813c fdcc 013d 202e e0bc
00000030: 898d 17be 01a6 71bd d1db bb3d 9818 893e
00000040: ff26 ebbc 65fa 563e 7434 333e 98ad 693e
00000050: 7f39 9ebd 94dc 673e 57b9 ea3d 7559 c9bd
00000060: 98d0 22be 4cca 31be 5274 513e fc1c a13e
00000070: a50c acbc ee6f 983e bf76 a9bd 88b0 94bd
00000080: 915b 933e 77ae 0fbd 92d1 42bd 5dfb 863d
00000090: c929 04bd 1b7d 5fbe bbb8 ed3c 6dba 363d
000000a0: bc48 11be eba7 a13d 3cc0 b739 df04 003e
000000b0: 85d9 eb3d 9392 693e afca 1ebe bd46 08be
000000c0: 27e2 753e 7efc 39be fcb9 6c3d 32b2 c03d
000000d0: 64b1 993e e823 4fbe 5b48 133c 6be8 73be
000000e0: 5d4e d13c 9395 8dbe 803a 143d 7138 443d
000000f0: f2b0 87bd 7efa 84be 38f4 17bd def4 8abe
00000100: 8078 a0bd 6485 e73d 1bb1 053e f97c 993e
00000110: 0ab8 55be c812 553e 0861 54bd 5cb3 213d
00000120: 9f1e 5a3e 3fe0 8bbd e86a e63d 3467 88be
00000130: 6501 cabd c10d b2bd 6c61 83be 2490 a03d
00000140: 1809 743d 27b7 46be 5816 01be 39cc 47be
00000150: 117a 5dbe dc58 613e 87bc 173e ea1b ac3d
00000160: 13f8 e8bc af9d 963e 3341 373e 801c 053e
00000170: 87db 523d 6d0b 9f3c bf18 cb3d 0ac6 883d
00000180: f4c9 793e dc7f 9e3d e655 a63d 304a f83d
00000190: 61f8 29be 1c01 613e 9bd4 07be 4435 1dbe
000001a0: 3c10 5b3e bc1e 75be 1834 1dbe e451 f8bd
000001b0: e052 47be 1a34 3bbe a941 8dbd 5d07 9f3e
000001c0: d50e 88be 91c4 bdbd dc2e 2bbe c037 61bc
000001d0: 7e86 9fbd 0768 13be c83c 2fbd 1642 083e
000001e0: c178 3c3e 9639 5c3e 82ec 30bc cd17 443e
000001f0: be24 66be 828d 963e 79f5 50be bed0 db3d
00000200: 93d3 d83c 36ea 353e 7955 f93d bf06 3f3c
00000210: 17a5 76be 5378 6dbe 07ee 6ebe 2e48 02be
00000220: 608b 2abc e804 91be 3716 33be a42a d0bd
00000230: 1be8 82be 909f 7abe f701 803e fad4 b5bd
00000240: 7077 b539 5f78 9f3c 7eb2 763e c249 683a
00000250: 7f5b 3bbe 3700 a0bb 7e02 893d ec1d 40be
00000260: 76c0 8a3e 4be2 763e eb9c a63e ced5 023e
00000270: d2a6 5dbe c0be 09bd c0c8 7cbc 6a3d 4abe
00000280: 76c4 d5bd c811 c73d 3675 a83d 1eef 38be
00000290: d61a 4c3c ec49 513d a83e 903e eef7 c03d
000002a0: de01 17bd 3e84 d9bd cbcd 75be 6922 993d
000002b0: 047b 26be 4a9e be3d 6d31 863d 0162 98bd
000002c0: 1592 39be d822 6a3b 5674 85bd c266 3e3c
000002d0: c053 1d3c 27e6 35be 4095 85be 4049 7dbc
000002e0: 66cb 71be 00be 913c 64e2 853e 5e71 703e
000002f0: 334b a03e 0069 bf3d 45f0 f4bd cf64 b63d
00000300: 7078 95be 682e 85be 1038 6b3d 5073 0f3d
00000310: 2492 06be e817 323d 357e 3e3c ac89 c13d
00000320: fc9d 893d 6824 6cbe bcda b53d 9c60 a83e
00000330: 0e5e 8fbd 7bfc 7abe 7733 8bbe fd6e 0cbe
00000340: 866a ebbd 7eb7 233e 953b 72be fa33 f5bd
00000350: 2a57 80bd 2006 6a3d 2207 fbbd 4a3d e4bd
00000360: 018e 773e cc7c 643e c9fe 4e3d 88e2 fdbd
00000370: b44b 303e 8a95 43be 5d9e 0d3e 9dec a83e
00000380: c7fe 8c3d 5f3c 253e b8d9 583e 19e1 da3b
00000390: 50c6 1dbd 0bd9 8dbd 1029 893e 2d09 49be
000003a0: 3f5d 6ebe 59c8 9f3e 238b 54bc 8eb9 96bc
000003b0: 4d49 3abe ac0a bd3d 5035 143e f0a8 1bbe
000003c0: 8afb 313e e5f0 09be 660c 55be 17be 433e
000003d0: d266 7dbe f42a 813d 17dd 823e e592 67be
000003e0: 5883 23be c658 89be 7768 08be df65 5bbd
000003f0: f0d8 91bd 9bbb 723d 7a78 39bd ab80 f93d
0.23278327 0.24927804 -0.16419534 0.054668184 0.32694298 -0.10515918 0.0027899542 0.1951653
-0.058109786 0.015864693 0.031689633 -0.027365744 -0.14800085 -0.058996204 0.09172786 0.26776576
-0.028705118 0.20993955 0.17500478 0.22820127 -0.0772581 0.22642738 0.11461132 -0.09831516
-0.15899885 -0.17362326 0.20454529 0.31467426 -0.021002123 0.29772896 -0.08274602 -0.07260233
0.28780797 -0.035078492 -0.047563143 0.065909125 -0.032266412 -0.21825068 0.02901875 0.044611383
-0.14187902 0.07893356 0.00035047706 0.12501858 0.11516098 0.2280982 -0.15507005 -0.13308235
0.24012052 -0.18162724 0.057794556 0.09408988 0.3001815 -0.20228541 0.008989419 -0.23819129
0.025550062 -0.2765318 0.036188602 0.04790539 -0.066255465 -0.2597236 -0.03709814 -0.27139944
-0.078354836 0.11304739 0.13055842 0.2997816 -0.20870987 0.20807946 -0.05185035 0.03947769
0.21300744 -0.06829881 0.112508595 -0.26641238 -0.09863547 -0.086940296 -0.25660264 0.07839993
0.059578985 -0.19405805 -0.1260618 -0.19511499 -0.21628596 0.22006553 0.14818011 0.08403762
-0.028438604 0.29417178 0.17895965 0.12999153 0.05147889 0.019414628 0.09916829 0.06678398
0.24393445 0.07739231 0.081218526 0.12123525 -0.16598655 0.2197308 -0.13264696 -0.1535235
0.21392912 -0.23937505 -0.15351903 -0.121249944 -0.19465208 -0.18281594 -0.06897289 0.31060305
-0.26573816 -0.09266008 -0.16717094 -0.013746202 -0.07789324 -0.14395152 -0.042782575 0.1330646
0.18405439 0.21506342 -0.010798575 0.19149704 -0.22474954 0.29404837 -0.2040614 0.10733174
0.026468074 0.17765126 0.12174506 0.011659323 -0.24086414 -0.23190431 -0.23332988 -0.12722847
-0.010409206 -0.28324056 -0.17488943 -0.10164383 -0.25567707 -0.24474931 0.250015 -0.08878513
0.00034611998 0.019466577 0.24091527 0.00088610884 -0.18296622 -0.004882838 0.066899285 -0.18761414
0.2709996 0.24109761 0.32541594 0.12776873 -0.21645668 -0.03362918 -0.015428722 -0.1974999
-0.104378626 0.097201884 0.08225481 -0.18059966 0.01245757 0.051095888 0.28172803 0.09422289
-0.036867015 -0.10620926 -0.24004285 0.07477266 -0.16257864 0.09307535 0.06552396 -0.07440568
-0.18122132 0.0035726335 -0.0651633 0.011621179 0.009602487 -0.17763577 -0.2609043 -0.015459359
-0.23612747 0.017790794 0.26149285 0.23480746 0.31307372 0.09346199 -0.1195989 0.089059465
-0.2919345 -0.26011968 0.057426512 0.03502208 -0.13141686 0.04347983 0.01162677 0.09450087
0.06719586 -0.23060763 0.08879611 0.32886207 -0.070003614 -0.24510376 -0.27187702 -0.13714214
-0.11494927 0.15987965 -0.23655541 -0.11972804 -0.06266625 0.057134748 -0.1225722 -0.111445025
0.24175264 0.22313231 0.05053595 -0.12396723 0.17216378 -0.19100013 0.13829942 0.32993022
0.068845324 0.16136311 0.21176803 0.0066796658 -0.038519204 -0.06926163 0.2678914 -0.19632407
-0.23277758 0.3120754 -0.012972626 -0.018399026 -0.18192025 0.09230551 0.14473462 -0.15201163
0.17381111 -0.134708 -0.20805511 0.19115482 -0.24746254 0.06307021 0.25559303 -0.2261463
-0.15968072 -0.2682554 -0.133211 -0.05356395 -0.07121456 0.059260946 -0.04528091 0.121827446
